models/digit_recognizer_model.pth (torch, 451042 bytes, 12 tensors)

layer_stack.0.weight f4 [128, 784]
0.02730495 0.02964314 -0.008366874 0.032807548 -0.007825128 0.0072068106 -0.01738768 0.02097438
0.031483676 -0.026201006 0.031042721 0.006684261 0.02639389 0.004854689 0.017220538 -0.0050425665
0.027531639 0.00527889 -0.016672855 0.009103511 -0.016454881 -0.0041883164 -0.0145056555 0.023691822
-0.028191794 -0.016464656 -0.0100848125 -0.021474017 0.003370826 -0.035274256 0.0322539 -0.030338153
0.027572408 0.0059440085 -0.011544588 0.022200454 0.0059662797 0.029046802 0.0040450892 -0.011013388
0.009761077 -0.009519115 0.015036129 0.031853143 0.020680755 -0.015561292 0.020640004 0.006391512
0.018141448 -0.02176773 -0.035353653 -0.013798572 -0.027393674 0.02930496 0.010286834 0.014793341
0.011295042 -0.00062128477 0.02795105 -0.025375487 0.0022494171 -0.02437494 0.011090101 -0.012163016
0.011436314 -0.007560338 0.029445667 -0.021137554 -0.020976035 -0.021012263 0.03318835 0.013091129
0.034937467 -0.02920237 -0.03501732 -0.027593067 -0.023939095 0.0144640915 0.012792287 0.029680902
-0.018441949 -0.02434565 0.01894922 -0.014435875 0.021675851 -0.008475023 0.020431943 -0.027748847
-0.018023556 0.010803354 0.008084302 -0.008235166 0.02229721 0.02385496 -0.026361011 -0.020114202
0.032596387 -0.01165124 -0.01391099 -0.036699098 -0.022837259 0.0070173084 -0.0057913987 -0.025121931
0.0013308645 -0.02400519 -0.03014895 -0.019668207 -0.031256106 -0.022739451 0.035700317 0.0067455345
0.011005704 -0.033310156 -0.023456208 -0.011889516 0.0056855916 -0.030834986 -0.01447921 -0.021183817
-0.002517719 -0.017704513 -0.0060347794 -0.02514658 -0.026757058 -0.024405701 -0.015486022 -0.031918213
0.02370224 -0.008868311 0.032658115 0.0155308405 -0.021284843 0.032152317 -0.0044770236 -0.01078361
-0.028891684 -0.035491943 0.0102182375 -0.007801567 0.013904397 -0.02930941 0.026514633 -0.026278153
-0.0061289794 0.006933324 0.016285352 0.02613525 0.02775156 -0.029564817 0.009842216 -0.016695477
-0.00084809575 -0.02657049 0.03919315 -0.02320727 0.02323729 0.018432563 0.015454765 -0.010560632
0.040624134 0.017440984 0.012165612 -0.02887585 0.015130596 -0.005903069 -0.016386786 0.030676665
0.007962457 -0.019759873 -0.017351693 -0.00093297847 0.020154182 -0.012372675 -0.02389995 -0.016778832
-0.035042677 0.01357589 0.03554642 -0.026869485 0.016556831 0.026601262 0.01899429 0.007986895
0.043904345 0.034229502 0.021684807 -0.004364213 -0.008520832 0.011598718 -0.0009642937 -0.012495604
0.020837585 0.028721178 -0.0034479657 -0.007898633 0.0005211532 -0.0021324372 0.008860965 0.011240802
-0.030223653 -0.013923697 0.026130958 0.0053461445 -0.008669538 -0.017459098 -0.0141902985 -0.018134836
-0.0002704224 0.018432217 0.029020367 0.02341346 -0.02856611 -0.01834818 -0.0051242085 0.02705929
-0.007773072 -0.012199133 0.013556368 -0.016683847 -0.024233751 0.024940923 -0.01684525 -0.0069949985
-0.035528727 0.023902522 0.026632722 0.012815666 -0.02867864 -0.045550402 -0.035462335 0.016897662
0.004957562 0.031487435 0.023586527 0.015305703 -0.000930356 -0.023827784 -0.039873984 -0.03472365
0.017840844 -0.005071615 -0.006280829 -0.031428464 -0.025687521 -0.036271904 -0.026683562 0.010880598
-0.009563519 0.020834345 -0.011479597 -0.025861157 -0.0063013905 -0.017312417 -0.011013551 -0.03701376
00000000: a1ae df3c 2cd6 f23c 3715 09bc 3561 063d
00000010: f734 00bc 1c27 ec3b 9c70 8ebc 77d2 ab3c
00000020: 07f5 003d 7ea3 d6bc 4e4d fe3c a507 db3b
00000030: 0038 d83c 1514 9f3b 1612 8d3c 1d3c a5bb
00000040: 088a e13c 8afa ac3b 8395 88bc e526 153c
00000050: 63cc 86bc 253e 89bb 21a9 6dbc 5a15 c23c
00000060: 7af2 e6bc e3e0 86bc c53a 25bc 47ea afbc
00000070: 13e9 5c3b bd7b 10bd aa1c 043d b887 f8bc
00000080: 88df e13c f5c5 c23b 8325 3dbc badd b53c
00000090: c880 c33b 8ff3 ed3c ab8c 843b 7f71 34bc
000000a0: edec 1f3c 10f6 1bbc 195a 763c 7178 023d
000000b0: b06a a93c caf4 7ebc 3a15 a93c e46f d13b
000000c0: 609d 943c 3d52 b2bc fece 10bd 6813 62bc
000000d0: b368 e0bc f510 f03c 1c8a 283c c55f 723c
000000e0: d70e 393c b7dd 22ba 9af9 e43c 41e0 cfbc
000000f0: f56a 133b f4ad c7bc 41b3 353c 6347 47bc
00000100: 615f 3b3c b6bc f7bb 0a38 f13c aa28 adbc
00000110: efd5 abbc e921 acbc 82f0 073d 2d7c 563c
00000120: 971a 0f3d cf39 efbc 526e 0fbd db0a e2bc
00000130: ec1b c4bc ccfa 6c3c be96 513c 5d25 f33c
00000140: 9213 97bc 8770 c7bc 653b 9b3c 7384 6cbc
00000150: 8e91 b13c d3da 0abc e460 a73c 8d51 e3bc
00000160: 23a6 93bc 8d00 313c 0574 043c caec 06bc
00000170: a3a8 b63c 7a6b c33c 0cf3 d7bc 8ac6 a4bc
00000180: ca83 053d d8e4 3ebc ecea 63bc cb51 16bd
00000190: 3415 bbbc 73f1 e53b c6c5 bdbb 82cc cdbc
000001a0: 6770 ae3a 88a6 c4bc eefa f6bc 381f a1bc
000001b0: 6706 00bd 1648 babc 7f3a 123d a509 dd3b
000001c0: 4551 343c 3b70 08bd 3c27 c0bc 3fcc 42bc
000001d0: 334e ba3b a799 fcbc 353a 6dbc af89 adbc
000001e0: 5100 25bb 0e09 91bc 66bf c5bb 3300 cebc
000001f0: 9e31 dbbc 77ee c7bc 16b9 7dbc acbc 02bd
00000200: 332b c23c 644c 11bc 84c4 053d 1175 7e3c
00000210: 8d5d aebc 26b2 033d ffb3 92bb bdad 30bc
00000220: 41ae ecbc 0060 11bd 656a 273c 4aa4 ffbb
00000230: 45cf 633c 4a1a f0bc 3735 d93c 4845 d7bc
00000240: 9bd5 c8bb f030 e33b dc68 853c 9819 d63c
00000250: 3d57 e33c ea31 f2bc 3f41 213c f4c4 88bc
00000260: be52 5eba 5baa d9bc ff88 203d 2c1d bebc
00000270: 215c be3c e3ff 963c fc35 7d3c 8006 2dbc
00000280: 7e65 263d 65e0 8e3c 4652 473c 0c8d ecbc
00000290: 52e6 773c 886e c1bb 953d 86bc a14d fb3c
000002a0: f774 023c 75df a1bc 2325 8ebc 2093 74ba
000002b0: 621a a53c c3b6 4abc d4c9 c3bc c373 89bc
000002c0: e988 0fbd 696d 5e3c 1f99 113d 651d dcbc
000002d0: 31a2 873c e4ea d93c ea99 9b3c 77db 023c
000002e0: 0bd5 333d 3c34 0c3d 56a4 b13c ac01 8fbb
000002f0: f69a 0bbc 8d08 3e3c a8c8 7cba 5dba 4cbc
00000300: 95b3 aa3c ad48 eb3c 44f7 61bb 4569 01bc
00000310: 009e 083a 5cc0 0bbb 952d 113c 572b 383c
00000320: 9897 f7bc 3820 64bc 9710 d63c b62e af3b
00000330: ae0a 0ebc 6206 8fbc 6d7e 68bc 828f 94bc
00000340: 7bc7 8db9 29ff 963c 1fbc ed3c 96cd bf3c
00000350: 7a03 eabc ec4e 96bc fae8 a7bb 72ab dd3c
00000360: 41b5 febb dfde 47bc 871b 5e3c 90ac 88bc
00000370: dc85 c6bc e850 cc3c 0dff 89bc 4d36 e5bb
00000380: 9286 11bd 39cf c33c de2c da3c cdf8 513c
00000390: 78ef eabc 0f93 3abd f440 11bd f76c 8a3c
000003a0: 0b73 a23b f8f8 003d 8838 c13c c5c4 7a3c
000003b0: 22e3 73ba 7c32 c3bc e752 23bd 633a 0ebd
000003c0: f626 923c ca2f a6bb 6acf cdbb 22bb 00bd
000003d0: a36e d2bc d991 14bd 7c97 dabc 8944 323c
000003e0: 4eb0 1cbc caac aa3c eb14 3cbc c7da d3bc
000003f0: e57b cebb c5d2 8dbc 2e72 34bc be9b 17bd

layer_stack.0.bias f4 [128]
-0.00081787416 0.02648471 0.02436655 0.0036142003 -0.032931365 0.021728698 0.03368249 -0.008302947
-0.008040849 -0.0059661283 -0.0015171599 0.033842016 0.014741506 -0.03040282 -0.018856972 -0.0029286079
-0.018515738 -0.031280823 0.01037433 0.029499503 0.0071805078 -0.0040895315 0.03566748 -0.014176856
-0.022244664 -0.0049209087 -0.024676288 -0.00026170368 -0.035353396 -0.033048984 -0.0026188819 0.022093527
0.0040268293 -0.034247167 0.029219816 0.030140081 -0.00036331458 0.021413315 0.008876691 -0.014416284
0.012182085 -0.005346007 -0.015332247 0.031153312 -0.022761077 0.009196361 0.018869514 -0.011043577
-0.0084637115 -0.023164364 0.01888627 -0.009780757 -0.030449156 0.01894953 -0.023584524 -0.0011798404
-0.014453734 0.025792606 0.020208446 -0.017065685 0.02351912 -0.0010602608 0.001202237 0.022333091
-0.01861973 0.0047427677 -0.010574856 0.019564204 0.028570328 0.015793215 0.0007473945 0.009296506
0.03138623 -0.028232092 -0.0010318 0.006518696 -0.0024020202 0.0010407522 -0.022828538 0.022448827
0.0057436395 -0.015558867 -0.021547249 -0.022627333 0.0074524465 0.027297875 -0.035370618 -0.00586729
-0.03245016 -0.017146105 0.0017491155 -0.008740226 -0.0258008 0.035425264 0.00011203811 -0.03467852
0.030480692 0.025313696 -0.014720162 -0.0125262365 -0.034248374 0.017787343 -0.0035641077 -0.027267892
0.005529423 -0.027471103 -0.012969827 -0.0003276994 0.03169984 0.021183448 0.035145875 -0.013405101
-0.00055807194 0.03212342 0.021699326 0.03434791 -0.021542441 -0.032032546 -0.0199403 0.014069017
-0.028147781 -0.004970875 0.025903981 -0.016351288 0.023883356 -0.03579189 -0.00769787 -0.00891781
00000000: 9b66 56ba 76f6 d83c 5c9c c73c 38dc 6c3b
00000010: 0ae3 06bd 6200 b23c a7f6 093d 1509 08bc
00000020: c4bd 03bc 837f c3bb 70db c6ba ed9d 0a3d
00000030: 5c86 713c 560f f9bc f079 9abc e3ed 3fbb
00000040: 51ae 97bc 5220 00bd 18f9 293c f1a8 f13c
00000050: 774a eb3b 7a01 86bb 1018 123d 0b46 68bc
00000060: 713a b6bc 933f a1bb ed25 cabc 4635 89b9
00000070: b9ce 10bd 5f5e 07bd 8ca1 2bbb 7cfd b43c
00000080: 7ef3 833b c246 0cbd 655e ef3c 55e8 f63c
00000090: 427b beb9 fa6a af3c 8a6f 113c 4732 6cbc
000000a0: 5e97 473c 8f2d afbb 1b34 7bbc 3b35 ff3c
000000b0: 7075 babc 55ac 163c 3d94 9a3c 1ff0 34bc
000000c0: 61ab 0abc 31c3 bdbc 61b7 9a3c 783f 20bc
000000d0: 8270 f9bc 0b3c 9b3c 5534 c1bc e0a4 9aba
000000e0: 5bcf 6cbc 044b d33c 2f8c a53c 56cd 8bbc
000000f0: 2bab c03c 73f8 8aba 6194 9d3a e3f3 b63c
00000100: 6788 98bc 3869 9b3b 2942 2dbc 1c45 a03c
00000110: 520c ea3c c660 813c ccec 433a 5f50 183c
00000120: d98e 003d fd46 e7bc 773d 87ba c99a d53b
00000130: 366b 1dbb d969 883a ea02 bbbc 9ae6 b73c
00000140: 2435 bc3b 9eea 7ebc db83 b0bc f55c b9bc
00000150: a733 f43b cb9f df3c c8e0 10bd 6542 c0bb
00000160: 75ea 04bd fd75 8cbc 9442 e53a 2a33 0fbc
00000170: 335c d3bc 151a 113d 01f6 ea38 100b 0ebd
00000180: a5b2 f93c ab5e cf3c d62c 71bc d83a 4dbc
00000190: 0648 0cbd c3b6 913c ce93 69bb ea60 dfbc
000001a0: 2930 b53b 140b e1bc 667f 54bc 12cf abb9
000001b0: b1d7 013d e988 ad3c 1ff5 0f3d 12a1 5bbc
000001c0: 934b 12ba d993 033d c9c2 b13c 65b0 0c3d
000001d0: c679 b0bc 8f34 03bd d759 a3bc bc81 663c
000001e0: 2d96 e6bc b9e2 a2bb 9634 d43c 23f3 85bc
000001f0: 07a7 c33c 849a 12bd 6a3e fcbb 021c 12bc

layer_stack.2.weight f4 [64, 128]
0.0620828 0.044918414 0.06322569 0.06805983 0.046957765 0.015397944 -0.025708623 0.049491737
0.025794737 -0.02557296 -0.0870105 -0.11343686 -0.011153994 -0.030536119 0.046467572 0.074971445
0.022329856 -0.021573486 -0.052086454 0.067097075 -0.045591045 -0.081946224 0.05793252 0.049595974
-0.08654902 0.044584766 0.005172089 0.0456553 -0.021118872 -0.0001530177 -0.10122997 0.086071596
-0.018954331 0.011210464 0.06853928 -0.0819723 0.069537774 0.046182685 -0.021814866 0.048601516
0.09174954 0.04849952 -0.043990925 -0.0611068 0.032188255 -0.09067612 -0.07933628 -0.04569932
-0.030353218 -0.021809801 -0.05820486 0.0026656366 -0.09455293 0.0068280413 0.08108392 -0.021751076
0.008430092 0.061958116 -0.02904462 0.07711319 0.058168247 0.051799186 0.042232726 -0.023122104
-0.011665228 -0.057590183 -0.031019792 -0.057579927 0.020178108 -0.07668132 -0.09081636 0.07699301
0.08865529 -0.019167772 0.06904032 -0.004297549 -0.05417915 0.024511639 0.023344973 0.032352705
0.012705496 0.022880595 -0.0582904 0.00991488 0.0048768427 -0.03385501 0.019710103 0.07245916
-0.08180674 0.04874789 0.009180317 -0.030916462 0.0044746893 0.029040124 0.067605965 0.007905637
-0.010091887 0.093730666 0.013008469 -0.072879784 0.06800316 0.06211286 -0.08547285 -0.082133114
-0.017090164 -0.071825884 -0.07316318 0.016802365 -0.057745624 -0.023173353 -0.06411545 -0.05771047
0.08682876 0.09467203 0.02241685 0.02582044 -0.0025011944 0.075888395 -0.07152705 0.019021912
-0.035947237 -0.06201147 0.055841137 0.07848295 0.016771814 -0.0091954125 0.012073897 -0.054705005
0.06070738 0.03555675 -0.094332725 -0.06442894 -0.0766907 -0.015953733 0.046106704 -0.04516722
0.039396837 0.06738987 0.0031781401 -0.054134943 -0.055995703 0.0028368782 0.11292943 0.053923003
0.023446154 0.088269964 0.10246904 -0.06510512 -0.013148399 -0.059628725 -0.076236814 0.061563004
-0.033374254 0.06900621 -0.010438378 0.083532415 0.044509947 0.028850678 0.020932121 0.085973114
0.070557214 -0.016957233 0.04586612 -0.042338654 0.084710754 -0.02126291 0.010552165 0.04643201
-0.023047129 -0.058085855 -0.002071015 -0.025912259 -0.071899824 -0.058685906 0.053366315 0.017380409
0.022973059 0.06879458 0.018761853 -0.094061255 -0.08800037 -0.03927776 -0.06606521 0.027058775
0.022670161 -0.0809318 0.056958105 -0.08795041 0.085755244 -0.041757442 0.08611604 -0.06444591
-0.060779046 -0.0032565456 -0.08035794 -0.018631842 0.080030836 0.0049667847 0.059262577 -0.009641996
0.08595959 0.04784773 -0.082727626 0.08236105 -0.053439233 -0.00024659542 0.027362943 -0.0020334376
0.051809512 -0.05800078 0.04669118 -0.0029599483 -0.05168974 0.07154553 0.082883544 0.07229684
0.0051527927 0.07172798 0.02122575 0.045035087 0.060803633 -0.043862972 -0.0635089 -0.0080725225
0.006390091 -0.09113744 0.05571496 -0.047384687 -0.047372144 -0.04052897 -0.08736211 0.08487248
0.0520215 -0.056579825 -0.023781851 0.0013148547 0.033269286 0.058234308 0.03558073 -0.0056497543
-0.06129675 0.1319522 0.051540542 0.04460065 0.05562133 -0.040881634 0.04342516 -0.030377336
-0.007832757 -0.00027911455 0.0628882 0.09569495 -0.043121822 -0.068083964 0.02254871 0.046993744
00000000: 894a 7e3d 5ffc 373d 787c 813d f462 8b3d
00000010: c956 403d a847 7c3c e49a d2bc d9b7 4a3d
00000020: 7c4f d33c 627e d1bc 9032 b2bd 9651 e8bd
00000030: 3ebf 36bc e226 fabc c854 3e3d a18a 993d
00000040: 1aed b63c e1ba b0bc 9b58 55bd 316a 893d
00000050: adbd 3abd 6cd3 a7bd a64a 6d3d 2625 4b3d
00000060: 9d40 b1bd 849e 363d a17a a93b 0d01 3b3d
00000070: 7c01 adbc 6073 20b9 a951 cfbd 4e46 b03d
00000080: 1d46 9bbc 18ac 373c 525e 8c3d 18e1 a7bd
00000090: d269 8e3d 0e2a 3d3d 17b5 b2bc 6212 473d
000000a0: 2fe7 bb3d 6fa7 463d d42f 34bd 204b 7abd
000000b0: d5d7 033d 67b4 b9bd 0f7b a2bd 362f 3bbd
000000c0: 50a7 f8bc 78aa b2bc 3868 6ebd f6b1 2e3b
000000d0: f7a4 c1bd c3bd df3b 540f a63d 502f b2bc
000000e0: 5e1e 0a3c cbc7 7d3d fcee edbc 85ed 9d3d
000000f0: d441 6e3d 622b 543d 39fc 2c3d 916a bdbc
00000100: 831f 3fbc afe3 6bbd 381d febc eed8 6bbd
00000110: 8f4c a53c 190b 9dbd eefd b9bd 83ae 9d3d
00000120: e890 b53d bb05 9dbc 0365 8d3d 74d2 8cbb
00000130: f5ea 5dbd a2cc c83c f53d bf3c 4584 043d
00000140: b62a 503c 1670 bb3c eac1 6ebd 0572 223c
00000150: eccd 9f3b 8dab 0abd 1577 a13c 7865 943d
00000160: 4b8a a7bd deab 473d 0a69 163c 8544 fdbc
00000170: 6aa0 923b 8ee5 ed3c ff74 8a3d a586 013c
00000180: 7158 25bc ddf5 bf3d 7921 553c ff41 95bd
00000190: 3e45 8b3d 0e6a 7e3d 640c afbd 6835 a8bd
000001a0: ac00 8cbc 7319 93bd 94d6 95bd 1da5 893c
000001b0: ad86 6cbd 0bd6 bdbc f64e 83bd d061 6cbd
000001c0: 47d3 b13d 69e3 c13d 8ba3 b73c 6385 d33c
000001d0: 14eb 23bb 606b 9b3d c67c 92bd d7d3 9b3c
000001e0: 693d 13bd bdff 7dbd adb9 643d abbb a03d
000001f0: 0b65 893c 5ba8 16bc 98d1 453c 5b12 60bd
00000200: 4da8 783d f4a3 113d 8431 c1bd 52f3 83bd
00000210: 0410 9dbd 67b1 82bc 62da 3c3d 4301 39bd
00000220: 945e 213d b303 8a3d 5848 503b 9abc 5dbd
00000230: c05b 65bd ebea 393b 8c47 e73d 5ede 5c3d
00000240: 2612 c03c e2c6 b43d 4adb d13d d555 85bd
00000250: 626c 57bc 403d 74bd 0c22 9cbd 7d29 7c3d
00000260: 71b3 08bd 2153 8d3d bb05 2bbc 0b13 ab3d
00000270: 1050 363d 4258 ec3c d779 ab3c ac12 b03d
00000280: 4d80 903d e5e9 8abc 1dde 3b3d 4c6b 2dbd
00000290: d57c ad3d 8e2f aebc fde2 2c3c 7e2f 3e3d
000002a0: 55cd bcbc 6feb 6dbd deb9 07bb f245 d4bc
000002b0: 3740 93bd a260 70bd a396 5a3d 5c61 8e3c
000002c0: ff31 bc3c 2ce4 8c3d 75b2 993c 30a3 c0bd
000002d0: 8a39 b4bd b7e1 20bd 324d 87bd 5daa dd3c
000002e0: c6b6 b93c 92bf a5bd e74c 693d 581f b4bd
000002f0: 72a0 af3d da09 2bbd 9b5d b03d 38fc 83bd
00000300: 73f3 78bd c56b 55bb b492 a4bd cea1 98bc
00000310: 35e7 a33d 69c0 a23b 51bd 723d 76f9 1dbc
00000320: 950b b03d fbfb 433d 1a6d a9bd e9ac a83d
00000330: 19e3 5abd 7a49 81b9 4028 e03c 6c43 05bb
00000340: 3636 543d 3a92 6dbd 403f 3f3d b1fb 41bb
00000350: 9fb8 53bd 7686 923d d9be a93d 5e10 943d
00000360: c2d8 a83b 1fe6 923d a0e1 ad3c b676 383d
00000370: 3b0d 793d a9a9 33bd f410 82bd 9d42 04bc
00000380: f863 d13b 44a6 babd 5f35 643d 7216 42bd
00000390: 4b09 42bd b501 26bd e8ea b2bd 9fd1 ad3d
000003a0: 7f14 553d 3fc0 67bd 28d2 c2bc 3457 ac3a
000003b0: 6045 083d 1987 6e3d 19bd 113d 9321 b9bb
000003c0: 4d12 7bbd 7a1e 073e 2d1c 533d 2caf 363d
000003d0: 31d3 633d 8073 27bd 95de 313d e4d9 f8bc
000003e0: f754 00bc 1f56 92b9 87cb 803d b7fb c33d
000003f0: 82a0 30bd 9b6f 8bbd 13b8 b83c 837c 403d

layer_stack.2.bias f4 [64]
0.03947662 0.036635913 0.032487433 -0.062317673 -0.058569767 0.06152933 -0.052832913 0.009199939
0.009265257 -0.050915137 0.08340922 0.0819201 -0.042550683 0.065997094 -0.06688498 -0.07648122
0.019611876 0.07217262 -0.04377749 -0.07011942 0.04433467 0.045036126 -0.01720054 0.08761633
0.030346055 -0.038266033 0.017987179 0.021107314 -0.058253504 0.010971208 0.019960947 0.006596862
-0.027042966 0.022700362 -0.053337045 0.0009348249 0.0023262792 0.0012313554 -0.024872486 -0.057849217
0.07928188 -8.3826235e-05 -0.027559474 -0.05494392 -0.05485482 -0.038339533 -0.057421893 -0.046481956
-0.062515825 0.059687097 0.027405346 -0.06346515 -0.009492423 0.07110159 0.0014650903 0.012117203
-0.034859676 0.026235763 -0.0070384108 0.056983232 0.017862301 -0.01010024 0.046729777 -0.06299248
00000000: 3cb2 213d 8a0f 163d 8b11 053d d140 7fbd
00000010: dae6 6fbd 2e06 7c3d 5367 58bd 57bb 163c
00000020: 4ecd 173c 648c 50bd 74d2 aa3d bac5 a73d
00000030: a049 2ebd 7c29 873d fefa 88bd 30a2 9cbd
00000040: 16a9 a03c 3dcf 933d 0650 33bd c59a 8fbd
00000050: 4598 353d cd77 383d 26e8 8cbc 3170 b33d
00000060: 4a98 f83c d8bc 1cbd d959 933c 3fe9 ac3c
00000070: 3a9b 6ebd 95c0 333c 2485 a33c 7d2a d83b
00000080: 3689 ddbc 1cf6 b93c f277 5abd 090f 753a
00000090: 7d74 183b 6e65 a13a 62c1 cbbc 4df3 6cbd
000000a0: 8a5e a23d decb afb8 68c4 e1bc e00c 61bd
000000b0: 73af 60bd ea09 1dbd 3833 6bbd dd63 3ebd
000000c0: 4c08 80bd 757a 743d 2d81 e03c 04fa 81bd
000000d0: 1c86 1bbc b69d 913d 4608 c03a 3c87 463c
000000e0: 05c9 0ebd 62ec d63c 78a2 e6bb 4067 693d
000000f0: f653 923c 7a7b 25bc b967 3f3d 3402 81bd

layer_stack.4.weight f4 [32, 64]
0.08937196 0.11257778 -0.03171453 0.01130558 0.056205563 0.060959857 -0.1047232 -0.05645645
0.037722137 0.017862234 0.12195507 0.032106146 -0.10811353 -0.10266042 -0.017011449 -0.09784071
-0.08381213 0.11714443 -0.090736695 -0.017077116 -0.00015827538 -0.12881076 0.020522937 -0.042958945
-0.018379347 -0.09379881 0.059633493 0.004753036 0.15461065 -0.0045181955 -0.018407544 0.018878251
-0.0860833 -0.09282041 -0.0012138207 -0.11696368 -0.0055059306 -0.0061820582 -0.0026695475 0.05055697
-0.06037633 -0.0081401495 0.04297751 -0.117921144 -0.08500636 0.091631554 -0.06440269 0.11514873
-0.019803666 -0.12460994 -0.031807568 0.124494255 -0.083000325 0.114090055 -0.11082829 0.12151077
-0.08104232 0.10482307 -0.106325075 0.09402515 -0.09999231 -0.12655394 -0.11781731 0.044606477
0.015946496 -0.049401604 -0.02043933 -0.052114222 -0.02275135 -0.014130508 0.07390602 0.045271408
-0.03213166 -0.010010573 -0.003977488 0.026519371 0.058036417 0.11038433 0.05200189 0.038836427
-0.12243034 -0.007765092 0.12411393 -0.018127937 -0.00042282106 0.042788222 0.11512645 0.008794372
-0.066978134 0.024384236 -0.11345794 -0.037741292 -0.10963746 -0.10135804 0.15256433 0.060877252
0.13018505 0.15062712 -0.1502847 -0.124019936 0.04634016 0.121704094 0.15447605 -0.026840214
-0.12234951 0.0653094 0.088898785 -0.059738148 0.085035436 -0.09578087 -0.08806177 0.08584061
0.08647956 -0.09397393 0.14275475 0.057777546 0.034511264 -0.083290935 -0.0095304195 -0.012339762
0.114643164 -0.08739289 -0.119615406 -0.079974286 0.09865007 0.07598462 0.11553873 -0.11072371
0.009330473 0.11493453 -0.02684582 0.13957845 -0.067190215 -0.059945256 0.031608663 0.1465219
0.068212315 0.06737586 0.013393115 0.14117077 0.0038440286 -0.11535961 -0.052236717 0.013388912
-0.05196038 -0.09324175 -0.10262916 -0.1193995 -0.025783235 0.027541501 -0.047670577 -0.00966594
0.08496515 0.05812156 0.10892243 0.0692113 0.068966605 0.08356208 -0.052359216 -0.012645458
0.03742401 0.030103562 0.05312308 -0.032572757 -0.04467868 -0.05460925 0.08057646 -0.12665269
0.059623484 0.09218445 0.09500029 0.009245728 -0.117739275 -0.05224988 -0.002189508 0.09140805
-0.100533195 -0.051214322 -0.11357407 -0.055717785 -0.08554074 -0.056942385 0.07691615 -0.06061006
-0.12292355 0.07137714 -0.073109664 0.08249088 -0.07803901 0.08974476 0.07547407 -0.002903215
0.10141711 -0.029299933 -0.07197825 -0.07030736 0.04924007 0.080467716 0.07146283 0.082542084
0.03606272 -0.08122778 0.011825151 0.056399282 0.11314617 0.12751341 -0.091457576 -0.00033030464
-0.020173026 -0.03264451 0.050334282 0.072254814 -0.07323461 0.12375322 -0.03118208 -0.025676517
-0.11180917 -0.052283965 0.022105608 -0.017962975 -0.09157014 0.03818988 0.034794867 0.08242052
0.05644648 -0.011970873 0.09307738 0.07911099 -0.022914322 0.06230948 0.10602712 0.05967214
-0.082244046 0.01217133 0.061856877 -0.0067800283 0.034626596 -0.12081179 0.033292886 -0.113222755
-0.10752987 -0.1094002 -0.015955186 -0.05802255 -0.06806737 -0.0014212993 0.05652235 -0.024204087
0.07132902 -0.023447433 0.07752944 -0.07050792 -0.051831454 -0.09172095 0.09848542 0.02863455
00000000: a508 b73d 2e8f e63d 18e7 01bd 0a3b 393c
00000010: ce37 663d 0bb1 793d 1e79 d6bd e13e 67bd
00000020: 8782 1a3d d253 923c 94c3 f93d bc81 033d
00000030: a06a ddbd a03f d2bd 985b 8bbc b660 c8bd
00000040: b2a5 abbd 6be9 ef3d 29d4 b9bd 4fe5 8bbc
00000050: b9f6 25b9 f8e6 03be b81f a83c b8f5 2fbd
00000060: 4990 96bc 9719 c0bd 4042 743d 5bbf 9b3b
00000070: 4152 1e3e 5f0d 94bb 6bcb 96bc 90a6 9a3c
00000080: 714c b0bd a118 bebd 1019 9fba a78a efbd
00000090: 186b b4bb dd92 cabb 93f3 2ebb d314 4f3d
000000a0: 2c4d 77bd 435e 05bc 2f09 303d a480 f1bd
000000b0: d117 aebd 53a9 bb3d 8fe5 83bd 19d3 eb3d
000000c0: 4c3b a2bc 7f33 ffbd a748 02bd d8f6 fe3d
000000d0: 13fc a9bd 0ca8 e93d f1f9 e2bd a3da f83d
000000e0: 84f9 a5bd 7aad d63d f6c0 d9bd 4290 c03d
000000f0: c5c8 ccbd 5b97 01be 344a f1bd 48b5 363d
00000100: 3aa2 823c 5659 4abd 6270 a7bc b975 55bd
00000110: 0a61 babc a583 67bc 0a5c 973d 836e 393d
00000120: 7d9c 03bd 6303 24bc 9655 82bb 273f d93c
00000130: 98b7 6d3d 2e11 e23d efff 543d f212 1f3d
00000140: c2bc fabd 5072 febb 722f fe3d 0a81 94bc
00000150: 15ae ddb9 b442 2f3d 6bc7 eb3d 4516 103c
00000160: d52b 89bd 73c1 c73c a35c e8bd 9d96 1abd
00000170: 9b89 e0bd ce94 cfbd d339 1c3e 6d5a 793d
00000180: 3b4f 053e ff3d 1a3e 3be4 19be 2afe fdbd
00000190: 2ecf 3d3d ff3f f93d f82e 1e3e 02e0 dbbc
000001a0: 6192 fabd efc0 853d 9110 b63d fdaf 74bd
000001b0: 0f27 ae3d c328 c4bd bb59 b4bd 34cd af3d
000001c0: 321c b13d 6775 c0bd 4d2e 123e 26a8 6c3d
000001d0: af5b 0d3d 7094 aabd 7a25 1cbc b72c 4abc
000001e0: 09ca ea3d 0bfb b2bd ecf8 f4bd 8fc9 a3bd
000001f0: 0c09 ca3d d39d 9b3d 929f ec3d 1dc3 e2bd
00000200: d7de 183c cb62 eb3d c4eb dbbc a7ed 0e3e
00000210: 069b 89bd 2889 75bd 1678 013d d609 163e
00000220: e6b2 8b3d 5bfc 893d cc6e 5b3c 128f 103e
00000230: 19ec 7b3b a941 ecbd 2bf6 55bd 2b5d 5b3c
00000240: 68d4 54bd 88f5 bebd 3d2f d2bd ba87 f4bd
00000250: 5d37 d3bc b79e e13c 3942 43bd e45d 1ebc
00000260: 3502 ae3d df10 6e3d b912 df3d a7be 8d3d
00000270: 5d3e 8d3d 9922 ab3d 9e76 56bd e52e 4fbc
00000280: eb49 193d bf9b f63c 9697 593d 036b 05bd
00000290: fe00 37bd f3ad 5fbd 4505 a53d 3eb1 01be
000002a0: c137 743d 33cb bc3d 838f c23d 657b 173c
000002b0: 4a21 f1bd f803 56bd d97d 0fbb 2534 bb3d
000002c0: 59e4 cdbd 1cc6 51bd 8699 e8bd 5538 64bd
000002d0: fc2f afbd 6b3c 69bd 3786 9d3d 4142 78bd
000002e0: 58bf fbbd 2e2e 923d 85ba 95bd faf0 a83d
000002f0: ebd2 9fbd 1acc b73d 2692 9a3d dd43 3ebb
00000300: c6b3 cf3d 6a06 f0bc 5569 93bd 4efd 8fbd
00000310: f5af 493d 42cc a43d 1b5b 923d d30b a93d
00000320: 81b6 133d c05a a6bd 47be 413c ef02 673d
00000330: 2eb9 e73d e092 023e 1c4e bbbd bd2c adb9
00000340: e741 a5bc 40b6 05bd 522b 4e3d 55fa 933d
00000350: 07fc 95bd 5472 fd3d 9071 ffbc 8f57 d2bc
00000360: 35fc e4bd b627 56bd d216 b53c 1727 93bc
00000370: 2089 bbbd fe6c 1c3d 1085 0e3d 17cc a83d
00000380: 6d34 673d 7b21 44bc 5a9f be3d f104 a23d
00000390: d1b6 bbbc 3a38 7f3d bf24 d93d c66a 743d
000003a0: 916f a8bd 426a 473c a35d 7d3d 002b debb
000003b0: 9ed4 0d3d 2c6c f7bd 1f5e 083d 55e1 e7bd
000003c0: 9f38 dcbd 360d e0bd 73b4 82bc 0ea9 6dbd
000003d0: e866 8bbd e44a baba fb83 673d a647 c6bc
000003e0: f314 923d d514 c0bc c1c7 9e3d 7566 90bd
000003f0: 384d 54bd 32d8 bbbd b9b2 c93d 0193 ea3c

layer_stack.4.bias f4 [32]
-0.10733875 -0.11982568 -0.062591076 0.10983812 -0.05214659 -0.12144607 -0.027274517 0.11317435
0.015665758 -0.029642813 0.083225615 -0.069396175 -0.08269248 0.11234455 0.07878145 0.112188034
-0.015190608 -0.019051977 0.008708313 -0.092215024 0.11190777 0.039218463 0.122396655 0.122733444
0.11562483 0.044590812 -0.009092986 0.054472584 0.040916193 0.020770395 0.014912908 0.080962844
00000000: 6bd4 dbbd 2b67 f5bd c02f 80bd cff2 e03d
00000010: aa97 55bd b8b8 f8bd cf6e dfbc f4c7 e73d
00000020: 7a55 803c 7cd5 f2bc 3172 aa3d 951f 8ebd
00000030: ad5a a9bd e614 e63d 2b58 a13d d7c2 e53d
00000040: 07e2 78bc e412 9cbc 50ad 0e3c 3bdb bcbd
00000050: e72f e53d 8aa3 203d 19ab fa3d ac5b fb3d
00000060: b6cc ec3d dba4 363d bffa 14bc a51e 5f3d
00000070: bd97 273d ad26 aa3c 4555 743c d9cf a53d

layer_stack.6.weight f4 [16, 32]
0.07872258 -0.17000169 0.18442915 -0.10068249 -0.14364177 0.28712928 0.111118875 0.27929732
0.042751294 -0.17627104 0.18545632 -0.1182531 -0.027202824 0.18038057 -0.005809325 -0.21849999
-0.028069807 0.3036582 0.21462464 0.26646015 -0.15148254 0.074541286 0.15476003 -0.24188234
0.07025351 0.102269 0.23608729 0.10698463 -0.11295364 0.13114761 0.06691518 -0.15927057
-0.17221566 -0.14841889 -0.12491213 0.013740927 0.05979746 -0.16723318 0.10406738 -0.09385311
-0.14443429 0.04319385 0.014915266 -0.107612886 -0.01027609 0.014894632 0.047401745 -0.06266258
-0.106998585 0.009737538 0.13493358 -0.12400309 -0.13221371 -0.0024067627 0.061764956 0.1237954
-0.02732869 -0.04679639 0.018398758 -0.097492315 -0.0517969 -0.07259223 0.009889522 0.123344235
0.020218762 0.023623968 0.1265237 0.017323906 0.04159379 -0.029388301 0.31504625 -0.057534233
0.014854236 -0.15949312 -0.10433116 -0.24126606 -0.036153417 0.13073596 0.05405249 0.18750228
0.123791344 -0.1802755 -0.13945857 0.20640811 0.12778647 -0.1393917 -0.08599499 0.017327666
0.12722823 0.11031963 -0.033091445 -0.0093246 -0.056362253 -0.048597742 0.0068983315 0.252968
0.109878115 -0.20926493 0.076747715 0.15883078 0.07369291 0.14955285 0.06795706 0.18354829
-0.15198128 0.20455992 -0.26324618 -0.08421678 -0.14498974 -0.09940069 0.047467142 -0.12894295
-0.016377173 -0.18286084 0.04132007 -0.06348025 0.1578452 0.046664897 -0.14496014 0.18696521
-0.049944222 0.19372794 -0.0560842 0.106699854 0.18215048 0.18154468 0.16030118 0.08265587
0.08716533 -0.09893864 0.041100062 -0.15048295 -0.11752631 -0.11266976 0.060753148 0.07015492
-0.1405546 -0.09419958 -0.07948945 0.28543434 0.17012408 0.26901075 -0.16021492 0.08577918
0.051336538 0.13960126 0.05723357 0.0028821356 -0.13056403 -0.07170816 -0.0041943495 -0.12828018
-0.13275015 0.12632325 -0.11102439 -0.12914953 0.020862369 -0.07263356 -0.08211504 -0.11072572
0.12584889 0.18214862 0.05097824 0.16363074 0.11771234 0.15925445 0.23892683 -0.15721683
0.2764164 -0.021111237 0.09244241 0.21471837 -0.16734082 -0.16652635 -0.1212137 0.021639496
-0.06689663 -0.07358204 -0.0013404769 -0.10248771 -0.121824086 0.07665568 -0.04126087 0.0633172
-0.08674351 0.0446486 -0.1071823 0.20196903 0.15194148 -0.20166267 0.10734358 -0.23232275
0.16985054 0.13869466 -0.0026218044 -0.021186989 -0.14132029 -0.13089584 0.08542622 -0.044234883
-0.062323645 -0.12334733 0.019966401 0.06657514 0.15672854 0.15212917 0.045866996 -0.17288724
0.08659501 -0.13103138 0.034946173 0.005184293 -0.06899016 -0.019830678 -0.1329724 -0.066873044
-0.060814083 -0.09374943 0.16683644 -0.18354268 -0.061464526 0.03668149 -0.09320715 0.09989447
0.07662658 -0.15894689 -0.039296295 0.025785856 -0.14751594 -0.13374357 0.14487763 0.102669664
-0.0026410657 0.043183982 0.14592338 -0.0655134 -0.092442 0.17766656 -0.12745269 0.12289161
-0.032297045 -0.14601392 -0.050174586 -0.11362278 -0.08678465 -0.14578915 -0.17533197 -0.11960979
-0.037265524 0.101667725 0.014864485 -0.0009119881 0.08813601 0.13362983 -0.119331144 -0.040720318
00000000: 4e39 a13d ec14 2ebe ffda 3c3e 9f32 cebd
00000010: d416 13be 9c02 933e 4b92 e33d 0f00 8f3e
00000020: fb1b 2f3d 6580 34be 43e8 3d3e ae2e f2bd
00000030: 75d8 debc afb5 383e 265c bebb 76be 5fbe
00000040: a7f2 e5bc 1679 9b3e 90c6 5b3e 776d 883e
00000050: 3d1e 1bbe 1aa9 983d 6a79 1e3e 01b0 77be
00000060: 12e1 8f3d 6972 d13d dec0 713e c21a db3d
00000070: 3d54 e7bd 8f4b 063e d30a 893d d317 23be
00000080: 4d59 30be 1ffb 17be eed1 ffbd a021 613c
00000090: 2eee 743d 2d3f 2bbe 4721 d53d 0f36 c0bd
000000a0: 95e6 13be 09ec 303d 295f 743c 2564 dcbd
000000b0: 0c5d 28bc 9d08 743c 5528 423d 3d55 80bd
000000c0: 1322 dbbd 328a 1f3c 072c 0a3e 55f5 fdbd
000000d0: 0863 07be c7ba 1dbb 40fd 7c3d 7188 fd3d
000000e0: 6be0 dfbc 92ad 3fbd feb8 963c 0daa c7bd
000000f0: fc28 54bd 3cab 94bd a907 223c e79b fc3d
00000100: d1a1 a53c 0d87 c13c 6e8f 013e ddea 8d3c
00000110: 405e 2a3d bcbf f0bc be4d a13e 04a9 6bbd
00000120: 2e5f 733c 2a52 23be 93ab d5bd 730e 77be
00000130: 9b15 14bd a6df 053e 2566 5d3d 9900 403e
00000140: 5186 fd3d 249a 38be 3ace 0ebe a65c 533e
00000150: 75da 023e b3bc 0ebe 241e b0bd c0f2 8d3c
00000160: 1e48 023e 42ef e13d e58a 07bd 35c6 18bc
00000170: 1bdc 66bd 6d0e 47bd 660b e23b 0685 813e
00000180: c707 e13d 8c49 56be e82d 9d3d 89a4 223e
00000190: 4fec 963d 6224 193e 122d 8b3d 15f4 3b3e
000001a0: fba0 1bbe 2878 513e 34c8 86be d979 acbd
000001b0: 3178 14be 9792 cbbd e86c 423d 9f09 04be
000001c0: 6c29 86bc df3f 3bbe 3c3f 293d ef01 82bd
000001d0: 2ca2 213e b123 3f3d 6e70 14be cf73 3f3e
000001e0: 5092 4cbd 9e60 463e 8cb8 65bd 7485 da3d
000001f0: a885 3a3e d9e6 393e fe25 243e 7b47 a93d
00000200: bd83 b23d 57a0 cabd 8a58 283d 3418 1abe
00000210: a2b1 f0bd 67bf e6bd 4bd8 783d 62ad 8f3d
00000220: 8ced 0fbe b6eb c0bd 5dcb a2bd 7324 923e
00000230: 0235 2e3e c7bb 893e 610f 24be ffac af3d
00000240: 4346 523d a2f3 0e3e bf6d 6a3d 36e2 3c3b
00000250: 94b2 05be badb 92bd c170 89bb e15b 03be
00000260: a8ef 07be e25a 013e c160 e3bd c63f 04be
00000270: 8fe7 aa3c e7c0 94bd ee2b a8bd 2bc4 e2bd
00000280: 88de 003e 2b85 3a3e 8fce 503d d18e 273e
00000290: 2b13 f13d 9913 233e 3ca9 743e 73fd 20be
000002a0: 7386 8d3e 79f1 acbc 7252 bd3d 22df 5b3e
000002b0: 645b 2bbe e285 2abe e33e f8bd 5045 b13c
000002c0: 1a01 89bd 2eb2 96bd f1b2 afba 14e5 d1bd
000002d0: e87e f9bd a7fd 9c3d 2801 29bd 73ac 813d
000002e0: 95a6 b1bd 73e1 363d 6582 dbbd f8d0 4e3e
000002f0: 8c96 1b3e a980 4ebe f3d6 db3d 04e6 6dbe
00000300: 4ded 2d3e f905 0e3e 94d2 2bbb 5690 adbc
00000310: 44b6 10be 8f09 06be f1f3 ae3d a32f 35bd
00000320: 1447 7fbd 869d fcbd 9490 a33c 8c58 883d
00000330: 727d 203e c0c7 1b3e 08df 3b3d 5a09 31be
00000340: b958 b13d 172d 06be b823 0f3d 00e1 a93b
00000350: b74a 8dbd f273 a2bc eb29 08be bcf4 88bd
00000360: 3018 79bd b3ff bfbd 2cd7 2a3e 9df2 3bbe
00000370: 3ac2 7bbd 543f 163d 64e3 bebd 7995 cc3d
00000380: 65ee 9c3d f9c2 22be 27f5 20bd dc3c d33c
00000390: 6b0e 17be 13f4 08be cd5a 143e 7944 d23d
000003a0: bb15 2dbb b0e1 303d f06c 153e e42b 86bd
000003b0: 3b52 bdbd 39ee 353e f582 02be 99ae fb3d
000003c0: e849 04bd ac84 15be de83 4dbd 0fb3 e8bd
000003d0: 27bc b1bd c049 15be 398a 33be faf5 f4bd
000003e0: bca3 18bd 2b37 d03d 2b8a 733c 7c12 6fba
000003f0: a780 b43d 42d6 083e e363 f4bd 59ca 26bd

layer_stack.6.bias f4 [16]
0.08043372 0.0684283 -0.047392763 0.10045073 0.08106607 0.046919126 -0.06673611 -0.0778499
0.09813297 -0.072575025 -0.15094498 0.11122255 -0.088624805 -0.104498886 0.02720834 -0.028753726
00000000: 6fba a43d 2324 8c3d ea1e 42bd 1db9 cd3d
00000010: f805 a63d 452e 403d f1ac 88bd c56f 9fbd
00000020: f0f9 c83d 37a2 94bd 5291 1abe a6c8 e33d
00000030: ec80 b5bd 8303 d6bd 06e4 de3c ef8c ebbc

layer_stack.8.weight f4 [8, 16]
-0.0411418 -0.13459836 -0.09190226 8.1946455e-05 0.07940294 0.029507713 -0.24601835 -0.03089787
0.19879162 -0.21659982 0.39202455 0.23207489 0.13501447 0.033265106 -0.031739734 0.06886338
0.538024 -0.10952741 -0.28642026 -0.023387127 -0.024057765 -0.31895587 -0.074307375 -0.082928605
-0.31974384 0.009048485 -0.020460093 -0.17534064 -0.22297646 -0.1866367 0.35433343 -0.06902871
-0.0844473 -0.13964152 0.18464918 -0.34925088 0.40279508 0.19580126 0.19618407 -0.12206055
-0.07649256 0.33835396 0.15679526 -0.09948444 -0.22299437 0.19400421 -0.046662226 0.28388008
-0.22789264 -0.002548784 0.02408178 -0.17697221 -0.053362846 0.009233571 -0.18838663 -0.04526108
-0.23622063 0.0634831 -0.12971981 -0.03525493 -0.15762125 -0.087277696 -0.06194822 -0.019782655
-0.20575303 -0.22028773 0.012405609 -0.0890229 -0.26626056 0.039172024 0.11005242 0.18974292
0.3675991 0.1619449 0.24470323 0.058621936 0.13458991 -0.20679797 -0.03487059 -0.19656797
0.025374986 0.14245735 0.4274385 0.4120157 0.0359851 -0.45838007 -0.038337436 -0.1437961
0.4869254 0.23434189 -0.23227921 0.22813818 0.14876503 -0.09866875 0.22043754 -0.06259336
-0.006475381 -0.07591086 0.04082147 -0.019446354 -0.33529037 0.13104263 -0.22990699 0.12610829
-0.42558196 0.37167096 -0.0084698815 -0.16710474 -0.24459168 -0.19976325 0.24555536 0.42566624
0.5870281 -0.21886994 -0.101498865 -0.3805899 0.17134102 0.15140806 0.20132342 0.15371543
0.10005816 0.1606075 -0.1860389 0.038079407 0.10371865 -0.2270935 -0.44447684 0.4003731
00000000: 4e84 28bd 27d4 09be 4137 bcbd abda ab38
00000010: 029e a23d 29ba f13c 3cec 7bbe 881d fdbc
00000020: 0890 4b3e 58cc 5dbe 71b7 c83e 0aa5 6d3e
00000030: 3c41 0a3e fe40 083d 8601 02bd 3e08 8d3d
00000040: f1bb 093f e84f e0bd ada5 92be 5c96 bfbc
00000050: ca14 c5bc 2f4e a3be 772e 98bd 79d6 a9bd
00000060: 77b5 a3be 1940 143c ed9b a7bc 7f8c 33be
00000070: f153 64be b11d 3fbe 316b b53e ed5e 8dbd
00000080: b5f2 acbd 30fe 0ebe ad14 3d3e 03d1 b2be
00000090: 283b ce3e 2080 483e 7ae4 483e e2fa f9bd
000000a0: 22a8 9cbd bb3c ad3e f08e 203e 80be cbbd
000000b0: a358 64be 0aa9 463e e420 3fbd bb58 913e
000000c0: b05c 69be 8009 27bb 2747 c53c 3438 35be
000000d0: 0093 5abd 6748 173c 6de8 40be af63 39bd
000000e0: d2e3 71be 6d03 823d 45d5 04be 7967 10bd
000000f0: 7767 21be a6be b2bd 6bbd 7dbd 3c0f a2bc
00000100: ecb0 52be 1b93 61be e540 4b3c a351 b6bd
00000110: 4e53 88be d872 203d 2a63 e13d f84b 423e
00000120: f335 bc3e e2d4 253e 7c93 7a3e 8e1d 703d
00000130: f0d1 093e d9c2 53be 77d4 0ebd 1d49 49be
00000140: 34df cf3c 57e0 113e 38d9 da3e b9f3 d23e
00000150: 1d65 133d cbb0 eabe b707 1dbd 493f 13be
00000160: 494e f93e 52f7 6f3e 9ada 6dbe 0e9d 693e
00000170: dc55 183e d712 cabd 61ba 613e f330 80bd
00000180: 6f2f d4bb 2777 9bbd 6a34 273d f64d 9fbc
00000190: 2eab abbe 0a30 063e bd6c 6bbe 8822 013e
000001a0: e1e5 d9be a84b be3e 42c5 0abc 811d 2bbe
000001b0: 3e76 7abe bd8e 4cbe dd72 7b3e edf0 d93e
000001c0: 7947 163f 711f 60be a3de cfbd aedc c2be
000001d0: 0574 2f3e b70a 1b3e ba27 4e3e 9467 1d3e
000001e0: 4beb cc3d 4b76 243e fb80 3ebe 27f9 1b3d
000001f0: 726a d43d 338b 68be 7892 e3be b4fd cc3e

layer_stack.8.bias f4 [8]
0.24939618 0.017402874 -0.076228626 0.111651056 -0.07155393 -0.21126674 -0.24143934 0.07312727
00000000: b661 7f3e 7990 8e3c c11d 9cbd 4fa9 e43d
00000010: de8a 92bd 4f56 58be e03b 77be c0c3 953d

layer_stack.10.weight f4 [10, 8]
-0.0007616271 0.5376687 -0.20782039 -0.30150688 -0.13446993 -0.46414086 0.21715172 0.107312776
-0.19103375 -0.25901157 0.6320923 0.098994456 -0.2937125 -0.0701843 -0.185563 -0.3606928
-0.30686367 -0.008157505 0.13243331 -0.027641015 -0.29361337 0.120629095 0.36791405 -0.057782598
-0.37302947 -0.1824472 -0.12538959 0.034452766 0.18450658 0.40527093 -0.20597082 0.17624682
-0.17057754 -0.34787777 0.26245666 -0.11999178 -0.41293427 -0.49985453 0.4035593 0.36427268
0.353793 -0.17141198 -0.3888854 0.21685448 -0.29995242 0.7024106 0.0017213321 -0.42043012
0.08935844 0.49420154 -0.39774996 0.101312265 -0.16372699 0.2165151 0.2735947 -0.49312666
0.2855754 0.02984602 0.1469731 0.18094043 0.4073572 -0.019431671 0.20402622 -0.29941547
-0.1335573 0.50894296 -0.13702558 0.20019488 -0.05457987 0.086228006 -0.53718007 0.24235845
0.35522547 -0.3343601 -0.063945696 0.029283255 -0.09444464 -0.021964885 -0.40199363 0.6055388
00000000: eea7 47ba a8a4 093f dece 54be 1c5f 9abe
00000010: 7cb2 09be dfa3 edbe 055d 5e3e cdc6 db3d
00000020: 5a9e 43be 2a9d 84be cdd0 213f 9bbd ca3d
00000030: 7c61 96be c9bc 8fbd 3a04 3ebe baac b8be
00000040: 3c1d 9dbe 0ea7 05bc 999c 073e 696f e2bc
00000050: 7e54 96be 630c f73d 3b5f bc3e 72ad 6cbd
00000060: b8fd bebe 70d3 3abe 2166 00be 581e 0d3d
00000070: 4bef 3c3e ac7f cf3e 04ea 52be 0c7a 343e
00000080: e1ab 2ebe 091d b2be b860 863e 40be f5bd
00000090: 1f6c d3be efec ffbe 539f ce3e f381 ba3e
000000a0: 5b24 b53e 9f86 2fbe fd1b c7be 1a0f 5e3e
000000b0: 5d93 99be 2ed1 333f 529e e13a 9e42 d7be
000000c0: 8f01 b73d fc07 fd3e e2a5 cbbe ce7c cf3d
000000d0: 0ca8 27be 22b6 5d3e 9b14 8c3e 197b fcbe
000000e0: f036 923e a47f f43c 1e80 163e 7348 393e
000000f0: 1f91 d03e 2b2f 9fbc 40ec 503e fc4c 99be
00000100: 3fc3 08be 164a 023f 6f50 0cbe e3ff 4c3e
00000110: 248f 5fbd 4f98 b03d a284 09bf d02c 783e
00000120: 1de0 b53e 3f31 abbe f6f5 82bd 70e3 ef3c
00000130: 316c c1bd b4ef b3bc 1cd2 cdbe 9704 1b3f

layer_stack.10.bias f4 [10]
0.34182537 0.4478634 -0.16451664 -0.35400698 -0.050919846 0.22647886 0.2581161 0.25324148
0.18536271 0.2747478
00000000: bc03 af3e 5a4e e53e 0d77 28be 6740 b5be
00000010: 5491 50bd 13ea 673e cb27 843e dea8 813e
00000020: b9cf 3d3e beab 8c3e
